Fine_grained/FRN/Aircraft_fewshot/OG/Conv-4_5-shot/model_Conv-4.pth (torch, 676487 bytes, 43 tensors)

r f4 [2]
00000000: bb50 8840 41ea 083e
4.259855 0.13370611

feature_extractor.layers.0.layers.0.weight f4 [64, 3, 3, 3]
00000000: 57f9 1dbc 62c7 43bc b93e 10bc ef51 4fbc
00000010: 87a0 7bbc bb6b 51bc 5686 57bc e040 6ebc
00000020: 24f6 57bc 2005 ed3c 6d09 f73c 5e73 f03c
00000030: 424c ec3c 8523 f93c 8dbe ef3c 6cd8 c13c
00000040: bb97 d73c 85f7 c83c dc9d a23b bc60 e63b
00000050: 88d7 c83b 9cb8 e93b cd5e 183c e6b0 023c
00000060: 63e1 e73b caa4 273c 2149 063c 804b e538
00000070: 3125 d138 25da 2239 d6ab 0c39 6a80 2939
00000080: 5d42 5139 ac56 5e39 1f2f 2a39 80f5 1139
00000090: 9ce6 aab8 0a4f a4b8 e5b8 5db8 6b9a 3138
000000a0: 2b1e 3db5 d49d 3538 7954 2339 49f4 5638
000000b0: dade 0939 3c96 7ab8 325e e3b8 6210 52b7
000000c0: 2081 de37 bddf 7c37 5461 4b35 f8a9 3837
000000d0: 5ff1 0338 5deb 5938 1003 2fbd 4655 9a3c
000000e0: 2388 903d b151 4ebd 90c4 a23c e948 933d
000000f0: 7e57 5ebd 168b 1cbc 2405 303d d1c7 42bd
00000100: 7954 b43b dc25 623d 0bc2 7abd fbcc 3c3b
00000110: b0e4 613d d587 72bd ac2c 8bbc 91ef 063d
00000120: 438f 97bb 555e a43c 0de8 4c3d 8fbe e3bb
00000130: bda4 d63c 5fb0 553d a2df e6bb 1ad8 703c
00000140: a77e 163d cd81 8636 9262 3638 c252 a938
00000150: c0ee 7838 1412 1738 5774 6737 84f6 c338
00000160: 60ea 4238 6981 b838 cf10 a338 9b6e eb38
00000170: 17fe 3a39 af44 0d39 c58b 3139 b5d8 0a39
00000180: 3a32 4839 8015 4539 e8f1 7139 a323 01b8
00000190: dab3 63b8 d11c 84b8 d872 57b7 3017 82b7
000001a0: bc28 8d37 4d8c d737 2a39 2938 4a5d 8237
000001b0: 27c8 87bb 3786 163b f24e a53a 5414 d8bb
000001c0: f729 ac3b 98e8 9eba 5842 3e3a 9e46 193c
000001d0: fe0c 033b c449 423c c39c 503c c836 753c
000001e0: 1700 c63c f1f9 f13c d6ec e23c b0d5 463d
000001f0: e3af 5a3d 62ce 443d c7ac db3c 9a9c bc3c
00000200: ce0c f73c 5810 2c3d b2e8 293d 0d09 3a3d
00000210: 1a29 8f3d a065 903d 3514 8d3d ffc9 d43c
00000220: f49e c33c fe49 cd3c d193 5a3c 1e19 2f3c
00000230: acb0 5d3c 1f8a 593c 5969 9a3c d5f2 a83c
00000240: 392b aabb 7e85 e5bb a1ce f5bb 52c5 1fbc
00000250: abde 3bbc 54a5 17bc aca9 f4b9 4825 d03b
00000260: f04e 053c fb48 923c 49a8 8d3c 17cf 8e3c
00000270: 0709 4a3c 69b3 3d3c a822 723c b93e 663c
00000280: 69ca b03c 2cb4 c73c 9710 9fbe 9c6c 14bf
00000290: 818d ddbe a9b7 9ebe 4bc8 1bbf bf63 f9be
000002a0: e376 933e 5878 f53d f7c9 2a3e aa64 323e
000002b0: 8525 bd3d f520 0c3e 03c2 d23d 5e1a 1dbc
000002c0: 6d39 d03c a372 5c3e d37d 1e3e 84de 303e
000002d0: 3d19 9e3e ec69 d63e 0a69 c23e 1182 6d3e
000002e0: e934 a13e 1174 8c3e 9740 863d cfc3 f73d
000002f0: 108f d73d b51b 6ebd c437 78bd b0ea 35bd
00000300: 5b5d 97bd 04df a2bd cba6 89bd 58e7 65bd
00000310: d306 90bd cf9b 54bd 3e3c 343e c046 3d3e
00000320: 5033 373e 7ede 383e e082 3f3e cec3 2f3e
00000330: 51ac 2c3e a794 293e d4bd 193e 1e4c 31bd
00000340: 6315 1ebd 1352 16bd 3d1f 35bd c01f 2bbd
00000350: 56c0 4ebd d147 a4bc a7e6 d5bc 2d54 21bd
00000360: 5b64 2d3a 6609 903a bd3d 7a3a 6603 993a
00000370: 619c c73a d2fa c53a 4dff 423a 37d3 8b3a
00000380: 194b 733a 0e52 dcba 76af cdba e7f1 d5ba
00000390: 6197 c1ba 41ed c5ba 6cb7 beba 0c5c 94ba
000003a0: 3b24 8dba c504 92ba e17e a0ba f7ea afba
000003b0: 3e80 a2ba 1ceb d0ba 9ee3 f0ba 20d0 d2ba
000003c0: c24f 91ba c6c9 9dba 35a2 93ba dceb 9938
000003d0: fa1e 4db7 86ab a137 8592 6e39 1156 4539
000003e0: b445 1339 54e3 d138 ad49 a538 158a 0c38
000003f0: fc6b 44b9 59bf 71b9 09ec 77b9 f03e dd38
-0.009641967 -0.011949392 -0.008804017 -0.012653812 -0.015358097 -0.012782033 -0.013154587 -0.014541835
-0.013181243 0.028933108 0.030155862 0.029351886 0.028844956 0.030412445 0.029265666 0.023662768
0.026317468 0.024532089 0.004962666 0.0070305746 0.006129209 0.007132603 0.009299946 0.007976746
0.0070764287 0.01023216 0.008196146 0.00010933634 9.972824e-05 0.00015530789 0.00013415454 0.00016164934
0.00019956515 0.00021203858 0.00016230017 0.00013919733 -8.149186e-05 -7.8348516e-05 -5.2862702e-05 4.23439e-05
-7.0451887e-07 4.330075e-05 0.0001557636 5.1249084e-05 0.00013148357 -5.974456e-05 -0.00010841749 -1.252079e-05
2.652459e-05 1.5072464e-05 7.5765024e-07 1.1006829e-05 3.145763e-05 5.195603e-05 -0.04272753 0.01883949
0.07057216 -0.050370876 0.019869119 0.07191641 -0.054282658 -0.009554645 0.042973652 -0.04755384
0.005503234 0.055211887 -0.06122021 0.0028808701 0.055149734 -0.05921157 -0.016989075 0.032943312
-0.0046252324 0.020064512 0.05002599 -0.0069502066 0.0262016 0.052170154 -0.007045702 0.01469996
0.03674188 4.008622e-06 4.3483982e-05 8.073963e-05 5.935016e-05 3.6018042e-05 1.379576e-05 9.344242e-05
4.6471483e-05 8.797908e-05 7.7755765e-05 0.00011226275 0.00017832998 0.00013472394 0.00016932104 0.00013241435
0.00019092197 0.00018795393 0.00023073668 -3.0789186e-05 -5.4288517e-05 -6.299618e-05 -1.2841738e-05 -1.5508005e-05
1.6827478e-05 2.569533e-05 4.0345978e-05 1.5540649e-05 -0.004143733 0.0022968182 0.0012612029 -0.00659422
0.005254026 -0.0012123762 0.0007257811 0.009355215 0.0019996758 0.011858407 0.012732687 0.014966674
0.024169965 0.029538127 0.027700823 0.048543632 0.053390395 0.048048384 0.026815785 0.023023892
0.030157473 0.042007774 0.04148168 0.045418788 0.069902614 0.070506334 0.0688862 0.025975225
0.023879506 0.025059696 0.013340906 0.010687141 0.013530891 0.01327756 0.018849062 0.020623604
-0.005193141 -0.007004439 -0.0075014387 -0.009751635 -0.011466662 -0.009255726 -0.00046665722 0.0063521005
0.008136496 0.017857065 0.017292159 0.017432733 0.012331254 0.011578419 0.0147787705 0.01405304
0.021580892 0.024377905 -0.31067345 -0.57978225 -0.4327202 -0.30999497 -0.608525 -0.48708913
0.2880164 0.119858444 0.16678606 0.17421213 0.09235672 0.13684447 0.10290911 -0.009588806
0.025418008 0.21528105 0.15477686 0.17272383 0.3087863 0.41877687 0.37970763 0.23194148
0.3148568 0.27432302 0.06555288 0.120978944 0.10525334 -0.058131892 -0.060600057 -0.04441327
-0.07390853 -0.07952693 -0.06721266 -0.05612883 -0.070325516 -0.051906403 0.17601106 0.1848402
0.17890668 0.18053624 0.18702269 0.17164537 0.16862608 0.16560613 0.1501382 -0.04328548
-0.038594615 -0.036699366 -0.044219244 -0.041778326 -0.050476395 -0.020053776 -0.02611096 -0.039386917
0.00066143804 0.0010989129 0.0009545943 0.0011673986 0.00152291 0.0015104658 0.00074385555 0.0010667805
0.0009280905 -0.0016809122 -0.001569255 -0.0016322703 -0.0014769846 -0.0015100614 -0.0014550514 -0.0011318936
-0.0010768244 -0.0011140337 -0.0012244844 -0.0013421465 -0.0012397838 -0.0015939209 -0.0018378382 -0.0016083755
-0.0011086392 -0.0012038283 -0.0011263551 7.339541e-05 -1.22261645e-05 1.9272567e-05 0.00022752032 0.00018819446
0.00014044979 0.0001000824 7.881536e-05 3.35072e-05 -0.00018732244 -0.00023054834 -0.00023643686 0.00010549824

feature_extractor.layers.0.layers.0.bias f4 [64]
00000000: affa a837 76b6 6ab8 b0b4 4db8 8101 bf38
00000010: 0111 5638 fb4a f2b7 5e33 7d37 57c8 ab37
00000020: 9c86 cf37 7f9d 17b8 6777 82b8 47a1 9238
00000030: 4e28 6e37 d148 3938 fd7a 25b8 d419 5638
00000040: fb2e a138 13b3 8638 1b0c f137 3deb d938
00000050: d202 7eb4 849c bc37 9e6e d238 8b22 d838
00000060: c03e 3bb8 2d81 c738 b5ea 2238 036e 48b7
00000070: b261 c138 d596 65b8 0a38 8f38 53d4 d938
00000080: 48d2 98b8 fa42 82b8 f076 dbb8 076e 9fb7
00000090: 1a6f c8b8 a3b1 14b8 dc85 0638 bb94 9d38
000000a0: 6b3b 7938 90df 7538 b5dc 3738 7e5a 89b8
000000b0: 37c4 afb8 18ee 8536 b748 d238 0da7 c636
000000c0: 8c07 1db7 253e 96b8 8bff 5ab8 98ba aab8
000000d0: edb8 b138 130b 90b7 64a7 c3b8 1b15 3e37
000000e0: cbfb ff36 0b04 5cb7 c4b4 1e38 8a3b 6e38
000000f0: a151 d0b8 bcfd a9b8 c498 aab6 e454 cdb8
2.0143894e-05 -5.5959877e-05 -4.9044087e-05 9.10787e-05 5.1037412e-05 -2.8883564e-05 1.5091935e-05 2.0478079e-05
2.4739005e-05 -3.6147885e-05 -6.2211235e-05 6.991863e-05 1.419529e-05 4.4175253e-05 -3.9453607e-05 5.104563e-05
7.685829e-05 6.422973e-05 2.8735076e-05 0.00010391183 -2.365662e-07 2.248423e-05 0.000100341844 0.00010306117
-4.4642715e-05 9.51312e-05 3.8842398e-05 -1.1946543e-05 9.221154e-05 -5.4738328e-05 6.8292095e-05 0.00010386915
-7.287093e-05 -6.2113584e-05 -0.000104648876 -1.9005513e-05 -9.5574374e-05 -3.5451387e-05 3.2072756e-05 7.5140466e-05
5.9421563e-05 5.862076e-05 4.383615e-05 -6.5495246e-05 -8.381198e-05 3.9914266e-06 0.000100271245 5.920307e-06
-9.359686e-06 -7.164133e-05 -5.2213243e-05 -8.1409875e-05 8.474463e-05 -1.7171295e-05 -9.3295035e-05 1.13297965e-05
7.6289048e-06 -1.3113963e-05 3.7838487e-05 5.6799072e-05 -9.9334175e-05 -8.10581e-05 -5.084179e-06 -9.790974e-05

feature_extractor.layers.0.layers.1.weight f4 [64]
00000000: 4329 013d a99f f438 f654 d03d 9837 1839
00000010: a67b 413e ed09 9b3c 343a 1b3f ef48 813e
00000020: 5098 4a39 3709 cc38 0fc7 443e ca36 e73c
00000030: 9539 823d d179 bf3d 28d5 123f f2fe 003f
00000040: 7d17 173a 1241 a73f ab1e 643e ad72 023e
00000050: 4b30 e83c d504 5e3a 66f7 9038 2a64 7e3f
00000060: 6540 b53e 00b8 d03b 75ae 4e3f 53f9 0e3f
00000070: e674 0839 e8eb b93e 3f1d 3f3f b58a 8d3f
00000080: 5a50 583e 8449 1a3f b00e 8b39 a861 993c
00000090: 1376 473f 239d f83e 51d8 b73e f0b6 903f
000000a0: 11c8 5f3f a0df 8138 db8c 163e 0a80 a93d
000000b0: 3464 7d3c 5b3e 7e3f d053 363d 89e5 713e
000000c0: 9211 603f 60bc 3c3f 14c4 fabd ec3a 083a
000000d0: 8965 ac3e a545 823e cdcf d039 fa7a 9b3b
000000e0: 0a7e 403e 71f9 1b3f 271d f53e 476d 113d
000000f0: 77a6 363e c004 0e3f 8056 063d 0519 213d
0.03153349 0.00011664566 0.10172455 0.0001451656 0.18894824 0.018925631 0.60635686 0.25250956
0.00019320962 9.7291944e-05 0.1921656 0.028224368 0.06358639 0.093494065 0.573565 0.50389016
0.0005763693 1.3066733 0.22277324 0.12739058 0.02834334 0.0008469348 6.9125366e-05 0.9937159
0.35400692 0.0063695908 0.8073495 0.5584919 0.00013013519 0.36312795 0.74654 1.1057955
0.21124402 0.60268426 0.0002652309 0.018723324 0.7791454 0.48557386 0.35907224 1.1305828
0.8741465 6.192853e-05 0.1470217 0.08276375 0.015465785 0.99313897 0.044513524 0.23622717
0.8752681 0.7372494 -0.1224443 0.00051967683 0.33671215 0.2544376 0.00039827675 0.0047448846
0.1879808 0.6092749 0.47873804 0.035504606 0.17836939 0.55476 0.032797337 0.0393305

feature_extractor.layers.0.layers.1.bias f4 [64]
00000000: af57 83bd 3a04 d6b9 4a35 2fbe f920 beb9
00000010: e6f3 a43d 3301 59bd 923c 0ebf 6cc2 b0be
00000020: 4eee 71ba 8db6 c0b9 c820 62be 5b22 a6bd
00000030: e9c5 46bd 1c34 62be c835 873b 5cb1 8cbd
00000040: a682 b9ba a7b2 ffbf 2566 50be 1f63 c2bd
00000050: 8c13 8cbd 1f2a a7bb fefd b8b9 c751 623e
00000060: 2674 733a c4cc 46bc 48b4 013f 9c0c 763e
00000070: 9593 bdb9 178c 34be 492a 003f 73fb 953e
00000080: 3468 f5bd dd1f e13e 3ec3 4fba 3a98 61bc
00000090: 1fa9 263f d85c 9037 fe15 dfbd edcc 193e
000000a0: f2c9 473e 618f 33b9 ee84 45be 80f3 3fbe
000000b0: 6f60 91bd 8842 4e3f b15d efbd cfd8 183e
000000c0: adf4 aa3e 4257 0c3e 4165 723e 17b6 2fbb
000000d0: 95b1 d13e 3ce9 6abe 43d8 9bba 0850 3fbc
000000e0: a80c 17be 73b9 9fbe 6f1c c5be 5cfb 31bd
000000f0: 596c 1dbe f40f 6f3e 41b4 ccbd 9e31 29bd
-0.06413209 -0.0004082041 -0.17110172 -0.0003626419 0.080543324 -0.05297966 -0.5556117 -0.34523332
-0.00092289306 -0.00036757105 -0.22082818 -0.081120215 -0.048528586 -0.2209019 0.0041262843 -0.06869766
-0.0014153316 -1.9976395 -0.20351465 -0.09491562 -0.06839666 -0.005101457 -0.00035284454 0.22101508
0.0009287022 -0.012133781 0.5066571 0.24028248 -0.00036158846 -0.17631565 0.5006452 0.29293403
-0.11982766 0.43969622 -0.00079255167 -0.013769204 0.6510181 1.7209371e-05 -0.108928666 0.15019579
0.1951063 -0.00017124183 -0.1928899 -0.18745232 -0.070984714 0.8057027 -0.11687792 0.14926456
0.33389798 0.13705161 0.23671438 -0.0026811415 0.40955797 -0.22940534 -0.0011890013 -0.011676796
-0.14750922 -0.31196174 -0.38498256 -0.043452606 -0.15373363 0.2334593 -0.09995318 -0.041307084

feature_extractor.layers.0.layers.1.running_mean f4 [64]
00000000: e0cd b73d c1c0 7736 a7f9 ba3d a2a5 ca39
00000010: 13e9 8c3e 4880 973d 0c8d a73f 1115 253e
00000020: af9d 12bc 15da 803a 0ee7 553e 0d18 bc3d
00000030: 47c8 17bb 5520 6d3e 3373 503e 774f 06bf
00000040: ce18 1b3b b0f1 9fbc 2f7e c43d 5f12 f93c
00000050: 80d5 213d f818 f53b 06d6 d3ba 6de6 27be
00000060: 67db 9cbe be38 63bc 6728 a3be 91be a6bd
00000070: dc13 113a db6f c03d fb25 1cbe 985f b6bd
00000080: c89e 013d 0f6c c63d 3b2b f339 83b2 bfbc
00000090: 8baa f63f 6514 1cbf 54f7 87be 7df9 053e
000000a0: 03c9 9a3d bbdb e939 b2bb bd3e 4746 d13e
000000b0: 327d 243e 0f7e bb3c eaf2 3c3d 5ac4 9e3e
000000c0: 7e77 d7bd fbdf 81bf 80fc 123e bc86 11bc
000000d0: bc69 33be 5b90 d93d 5863 713a fc2d 293c
000000e0: a968 5ebe 4794 42bf b558 6e3e 2774 0e3d
000000f0: 9f44 043d e1d1 033e 1fa9 a93d cdaa 9f3b
0.089748144 3.6918066e-06 0.09129649 0.00038651848 0.27521572 0.073975146 1.3089919 0.16121317
-0.0089487275 0.0009830619 0.20888922 0.09184275 -0.0023160146 0.23156865 0.20356445 -0.52465004
0.0023665908 -0.019524425 0.0959438 0.030404268 0.03951025 0.007479783 -0.0016161806 -0.16396494
-0.3063614 -0.013868509 -0.31866762 -0.081418164 0.00055342703 0.09396335 -0.15248863 -0.08904952
0.031645566 0.09688579 0.0004638078 -0.02340055 1.9270796 -0.6096862 -0.26555884 0.13083453
0.07557871 0.00044604935 0.37057263 0.4087393 0.16063383 0.022887258 0.0461301 0.3100918
-0.10520838 -1.0146478 0.14354134 -0.008882221 -0.17520803 0.10623237 0.0009208224 0.010325905
-0.21719612 -0.76007503 0.23276027 0.03477874 0.032292005 0.12873031 0.082842104 0.004872656

feature_extractor.layers.0.layers.1.running_var f4 [64]
00000000: 126b 813d 58df 4536 177b bb3d c24d 8436
00000010: 99c1 253f 078e bd3d af3a 8e40 47d1 1c3f
00000020: a641 c839 cb7b e036 8cb7 5a3f a68c fc3e
00000030: 7b35 1c3d 3a80 563f cf15 d73f 49ab 1740
00000040: e17c 9e38 de2d 1140 8204 a23e 51ce 123e
00000050: 5a16 ad3c ccf0 c83a d6a1 1737 a221 1840
00000060: 4bbd d03f e4e5 183a 1b6d 0c41 ab40 7a40
00000070: bd5a 6736 8d47 0d3f d99a fb40 0be5 1f40
00000080: 0f46 8f3d 49d9 b740 a4b4 6038 5046 0b3b
00000090: 0a50 e940 30b5 5840 0bea 273f 3fb8 5040
000000a0: 291c 3540 8916 2537 7892 f43e 2fa7 3d3f
000000b0: a95b 0e3e 2729 4d40 e7d2 803d 5276 3c3f
000000c0: c71c 3f40 0f24 a940 116e 843e 0fa0 a139
000000d0: d613 fb3f 1ee9 cf3e 4e08 9d37 f9c5 0f3b
000000e0: 3cb3 2a3e 40de a040 916c 583f 56e5 633c
000000f0: 2086 583e d279 0140 15ca 063e bbc9 3a3c
0.0631925 2.948529e-06 0.09154337 3.9429588e-06 0.6474853 0.09255605 4.4446635 0.6125683
0.00038195885 6.6901316e-06 0.8543632 0.49326056 0.03813694 0.8378941 1.680353 2.3698294
7.5572876e-05 2.2684245 0.31644064 0.14336516 0.021128822 0.0015330552 9.037982e-06 2.3770528
1.6307768 0.0005832596 8.776637 3.910197 3.44745e-06 0.551873 7.8626523 2.4983547
0.069957845 5.745274 5.3573996e-05 0.0021251626 7.2910204 3.3860588 0.65591496 3.2612455
2.8298438 9.840013e-06 0.47767997 0.74083227 0.13902153 3.2056367 0.062902264 0.7361804
2.9861314 5.2856517 0.25865224 0.00030827566 1.9615428 0.40607542 1.8719726e-05 0.002193807
0.16669935 5.02713 0.8454066 0.013909658 0.21144915 2.0230603 0.13163026 0.011400635

feature_extractor.layers.3.layers.0.weight f4 [64, 64, 3, 3]
00000000: 055e c43b b5a0 f23b a692 053c 2fe2 513b
00000010: d3d7 a73b d6b0 863b 0be3 573a 105b 553b
00000020: ea44 7d3a 47e1 d938 10df 7e38 8695 0e38
00000030: 108d e037 2863 19b8 1b81 fcb7 4565 b036
00000040: 83d7 e437 9929 2137 d723 e23b 43f5 f93b
00000050: 34f9 303c a53b 7cbc dfcf 893b 5c05 273c
00000060: 3878 b3bc 92a8 a3bb 8318 2dba 46e7 7c36
00000070: 3c75 a8b6 e05f c036 1d43 6038 7add 23b7
00000080: 5c7a 1038 8582 da37 2463 17b8 fc56 51b6
00000090: 7cfd 5f3c e01f f13b 417e de3b 339d 3b3c
000000a0: 0a58 1b3c 0a20 a73b 2514 b5bb 262f 1fbc
000000b0: dcc0 24bc e836 b43b 37b6 3d3b 06cf 1a3b
000000c0: 4a83 e83b d41f be3a c42e 1d3b 0815 723b
000000d0: a709 a8b9 3109 88b8 d1bd 123e ad64 213e
000000e0: 9fec e93d aa24 ca3c 8ac4 963d 5a6f 18bb
000000f0: c8a4 a0bd 5ae6 a13c 53fb d6bd 8a67 403d
00000100: 3e55 633d e6ad 573d 7225 823c 376d 253d
00000110: c7cc b13c 9750 64bc 2896 cb3c 4c58 05bb
00000120: 84f0 9a39 5648 7c39 b9e0 3439 e186 77b9
00000130: a9be 8ab9 9c96 beb9 5571 fbb9 2b05 d7b9
00000140: 9d7e f1b9 f881 6fb8 b6db 0bb9 8573 97b8
00000150: b48a e0b8 d7f9 0eb9 d73e 09b7 e191 83b8
00000160: 08c4 8bb8 fb06 afb8 092e 1a3d 4341 173d
00000170: 868d 233d b485 003d 61a0 293d 5aa4 ff3c
00000180: f38a b93c 1f91 0c3d 465f db3c 509b 093c
00000190: ce94 743b 1d00 c33b fbde dd3c 4b08 5f3c
000001a0: 7a53 993c 706c 913c 4847 2a3c 605c 2f3c
000001b0: 05ac f33b d5d6 f23b d632 123c 0ba7 85bb
000001c0: a785 1c3b eb54 a239 dd6a 82bb 1bbe 223a
000001d0: b206 92ba 73c5 0d3b 44d9 26bb b91c fa3a
000001e0: 1bda 24bc 71da 35bc 7f03 8ebc 5fee b8bc
000001f0: 0a0a 11bc c50d f6bc 6bfb cc3d ab8d a73d
00000200: cbb4 833d 098d 9ebd abb4 70bd b961 f4bd
00000210: 1a1f b6bc 15b1 c5bc fbca 99bd dcf6 b3bc
00000220: 5477 f5bc cb18 6cbc cd3c 813c 4a00 86bc
00000230: 3f36 c03c 38f0 c63b 37bf 9bbc 36cb d73c
00000240: c748 0b39 a375 ec38 c543 2c38 11d3 6f38
00000250: d431 a1b8 80cc 15b9 a0fb a1b8 20bc 07b9
00000260: 536e 4bb9 5aac 0d3d cc0b 65bc 555f fdbd
00000270: ab4c 993d cf1b 16bd 5e54 9ebe 04d5 df3c
00000280: 4a3e 7dbd f562 cebe bf3b 093d 762a f53c
00000290: ecde 013d 55c6 cb3c b986 f83c 76a4 d33c
000002a0: cd46 643c 6695 953c cc11 673c b69f 9c3c
000002b0: 91db 8d3c d1a8 973c 0b3d 3d3c ef11 7d3c
000002c0: c54e 493c 5504 a43b a663 253c 48d1 c23b
000002d0: f218 023c bfd5 e43b 654b fb3b 080a f23b
000002e0: d369 d23b 2425 cf3b d7a4 823b 9fd7 863b
000002f0: 0d8d 5e3b 26b6 e63a 23ea 8a3a f388 503a
00000300: 5746 04ba d0c8 40ba c9fd 44ba 9ea7 d2ba
00000310: 997b d9ba c177 c0ba 23e5 ed38 22d1 6138
00000320: 3832 4339 0f89 3c38 2089 e338 db4c f038
00000330: 3967 25b9 aac2 aab7 34db c9b7 5b0b e73d
00000340: d50b 55bd fab3 39be 32d9 123e 8801 593e
00000350: 58d9 90be 06de 833e 7ba4 013e ef91 62be
00000360: 2273 053c 72d4 04bc a4df 123c 89e4 0f3d
00000370: dddb ef3b fdc1 383d 6e17 e23c 9154 0e3c
00000380: 8e77 4b3d 903a 6c3a df32 df39 f0c1 f839
00000390: 479f 8d38 280b fe36 4d41 6cb9 280c 95b9
000003a0: 2dd0 60b9 6dd3 96b9 b2ee 1abe 8e1f 04be
000003b0: 0d85 ccbd caf4 05be 1aea 69be 801a 20be
000003c0: 41fa 47be d6be 51be 285e 91be 0390 3f3d
000003d0: c0a4 bdbd 0dba 003d 01bd 9b3d 643e a5bc
000003e0: 8bda 6d3c c909 0ebe f16a 32be 8325 19be
000003f0: 7fe0 47b8 0986 4eb8 d2dd a8b8 44e3 1238
0.0059926533 0.0074044117 0.0081526395 0.0032025685 0.005122164 0.004110436 0.0008235431 0.0032555498
0.0009661453 0.000103893275 6.0766062e-05 3.3994693e-05 2.6768568e-05 -3.657039e-05 -3.010086e-05 5.256998e-06
2.7280073e-05 9.606033e-06 0.006901245 0.0076281144 0.010801602 -0.01539508 0.0042056884 0.010194149
-0.02190791 -0.0049944604 -0.0006603079 3.7685545e-06 -5.020438e-06 5.733207e-06 5.3468266e-05 -9.767124e-06
3.444623e-05 2.6048403e-05 -3.6093537e-05 -3.1194058e-06 0.013671275 0.007358536 0.006789953 0.011451053
0.009481439 0.005100255 -0.005526083 -0.009715831 -0.010055747 0.0054997094 0.002894772 0.002362193
0.007095729 0.0014505335 0.0023984173 0.0036938805 -0.0003205065 -6.4866974e-05 0.14330222 0.15761061
0.11422085 0.024675686 0.073617056 -0.002325973 -0.078439295 0.01976316 -0.10497155 0.046973743
0.055501215 0.052656077 0.015886996 0.04038736 0.02170409 -0.01393523 0.024851874 -0.0020346818
0.00029552367 0.0002405954 0.00017249853 -0.00023606002 -0.00026463464 -0.00036351837 -0.0004795889 -0.00041011846
-0.00046061436 -5.7103083e-05 -0.00013337922 -7.221758e-05 -0.00010706988 -0.00013635248 -8.180467e-06 -6.273739e-05
-6.66455e-05 -8.3459505e-05 0.03764156 0.036927473 0.03992989 0.03137751 0.041412715 0.031206299
0.022649264 0.034318086 0.026778828 0.008398846 0.003732014 0.0059509412 0.027083864 0.013612817
0.018716563 0.017751902 0.010392971 0.010703176 0.007436278 0.007410864 0.008923253 -0.004078751
0.0023883374 0.00030962317 -0.0039800243 0.00062081375 -0.0011140911 0.0021632581 -0.002545909 0.0019082046
-0.010061766 -0.011099444 -0.017335651 -0.022574602 -0.008852491 -0.030035863 0.10008892 0.08181318
0.06430968 -0.07741744 -0.05876605 -0.119327016 -0.022231627 -0.02413229 -0.075094186 -0.021968298
-0.029964127 -0.014410208 0.015776062 -0.01635756 0.023463367 0.006071117 -0.019012077 0.026342016
0.00013283185 0.000112752685 4.107111e-05 5.717861e-05 -7.6863595e-05 -0.0001428593 -7.723947e-05 -0.00012944685
-0.00019400688 0.034588195 -0.013979863 -0.12371699 0.074853264 -0.036647614 -0.30923742 0.027323253
-0.06182698 -0.40309873 0.033504244 0.029927474 0.031706735 0.024874846 0.030337678 0.025835257
0.013932896 0.018259715 0.014103364 0.019119125 0.017316611 0.018513115 0.011550198 0.01544617
0.0122868465 0.005005399 0.010094559 0.0059453584 0.007940518 0.0069834883 0.0076689 0.0073864497
0.0064213066 0.006321566 0.0039869356 0.0041150595 0.0033958585 0.0017601892 0.0010598343 0.00079549773
-0.0005045882 -0.0007354142 -0.00075146236 -0.0016071682 -0.0016592621 -0.0014684127 0.00011343721 5.383895e-05
0.00018615357 4.495034e-05 0.00010849745 0.00011458407 -0.0001577408 -2.0356227e-05 -2.4063142e-05 0.11281463
-0.052013237 -0.18135062 0.14340666 0.2119199 -0.2829082 0.25755328 0.126604 -0.22125982
0.008145126 -0.008107292 0.008964453 0.035130057 0.007319911 0.045106877 0.027599063 0.008687154
0.049674563 0.0009011412 0.00042571776 0.0004744674 6.753072e-05 7.5710886e-06 -0.0002253104 -0.00028428552
-0.00021439856 -0.00028767754 -0.15130118 -0.12902662 -0.09986315 -0.13081661 -0.22843209 -0.15635109
-0.19529058 -0.20482954 -0.28392148 0.0467682 -0.09259939 0.03142743 0.07604409 -0.020171352
0.014517437 -0.1387092 -0.17423607 -0.14955716 -4.7654376e-05 -4.9239057e-05 -8.0521815e-05 3.502077e-05

feature_extractor.layers.3.layers.0.bias f4 [64]
00000000: faf8 dfb6 2490 c036 34a5 0cb7 1950 36b7
00000010: 0aaf 1c36 dfca 2036 fa79 b0b7 4fe3 3cb7
00000020: 827a 0fb7 5c32 22b5 eabd a837 56f7 80b7
00000030: 6768 57b7 4dff b637 1ea5 7c36 ccd4 22b7
00000040: a425 c035 aea6 3ab7 72a4 f634 e153 41b7
00000050: 9e23 ce35 4a04 3236 e21c b437 d79d 4937
00000060: 7af3 4136 32d3 9737 53f3 be37 5878 50b7
00000070: dd75 8bb7 8a61 1634 40a4 12b7 4d6a 1137
00000080: 8c34 9c37 eb13 8936 13ca 34b6 c551 2937
00000090: c333 96b7 bf2a 4837 c5f0 03b7 a553 85b7
000000a0: 6fce 69b6 2269 b937 e5bc 1eb7 7095 88b7
000000b0: decc 7437 835c c0b5 be7a dab6 9c79 7437
000000c0: 52f1 2737 86c7 ff36 c9cf b837 1ca4 a6b7
000000d0: 75af 04b7 6fa4 8437 e6ef a1b7 8286 6eb6
000000e0: 60eb 0037 9e90 cb35 4924 9a36 2ad9 50b7
000000f0: 784a ea36 dd39 7db7 7acd 4d36 60b2 4cb6
-6.6749026e-06 5.738826e-06 -8.383115e-06 -1.08666945e-05 2.3347698e-06 2.3959944e-06 -2.1037635e-05 -1.1258598e-05
-8.551988e-06 -6.0422985e-07 2.0115596e-05 -1.5373964e-05 -1.2839307e-05 2.1814974e-05 3.7647037e-06 -9.705498e-06
1.431607e-06 -1.1125272e-05 4.594072e-07 -1.1523226e-05 1.5358562e-06 2.6526563e-06 2.1471122e-05 1.2017284e-05
2.8900963e-06 1.8098948e-05 2.2763072e-05 -1.2425786e-05 -1.6624976e-05 1.4005323e-07 -8.740521e-06 8.667424e-06
1.8621118e-05 4.085237e-06 -2.6939713e-06 1.0092223e-05 -1.7905497e-05 1.1930882e-05 -7.864267e-06 -1.5893786e-05
-3.4839866e-06 2.2102675e-05 -9.461514e-06 -1.628205e-05 1.4591233e-05 -1.4332039e-06 -6.5111954e-06 1.4571848e-05
1.0010162e-05 7.62282e-06 2.2031267e-05 -1.9865161e-05 -7.908665e-06 1.5812197e-05 -1.9304407e-05 -3.5543057e-06
7.684197e-06 1.5166768e-06 4.593782e-06 -1.2448329e-05 6.9824127e-06 -1.50934475e-05 3.0666984e-06 -3.0502197e-06

feature_extractor.layers.3.layers.1.weight f4 [64]
00000000: f237 573f 0d9e 293f 563b 203f d856 283f
00000010: cb20 0a3f 4e08 473f b15f 453f 122c 473f
00000020: bd13 403f a882 5a3f f1f9 463f 74c3 2f3f
00000030: 3063 633f a42a cd3e 95e3 643f b218 c83e
00000040: 36b6 493f 08b9 453f f8ed dc3e 0448 253f
00000050: e9d5 103f 7df8 6b3f 686a 313f a6af 4d3f
00000060: ad90 443f 22ec 323f e63f 1a3f 4f48 2b3f
00000070: 7d66 323f 4d96 223f 8e46 4c3f f49e 5c3f
00000080: 0552 5e3f ad50 1f3f 9b13 2d3f bfd1 3a3f
00000090: 34cc 1f3f 791e 783f cbac 453f 97b3 c13e
000000a0: 345d 323f 6a2d f73e c3d4 073f ec04 233f
000000b0: 940c f63e 11e5 3e3f 9d76 053f ac51 0b3f
000000c0: 7575 703f 2922 5e3f 64d8 1e3f 5b50 183f
000000d0: bff7 3b3f 7223 183f cf6a 4a3f c44a 323f
000000e0: fe95 483f 9c4b 153f 3bef 1e3f 76cc 223f
000000f0: 9bd6 933e b915 273f ef79 823f ad3f 073f
0.8406974 0.6625679 0.6259054 0.65757513 0.5395629 0.77747047 0.7709914 0.7780162
0.7503012 0.85355616 0.7772513 0.6865761 0.88823223 0.40071595 0.8940976 0.3908134
0.78793657 0.7723546 0.43150306 0.6456301 0.565764 0.9217604 0.6930299 0.80346143
0.7678326 0.6989156 0.6025375 0.6690721 0.69687635 0.6351059 0.7979516 0.86180043
0.868439 0.62232476 0.6760804 0.729763 0.62420964 0.969215 0.77216786 0.3783233
0.69673467 0.48276836 0.53059024 0.63679385 0.4805647 0.7456828 0.52134115 0.54421496
0.93929225 0.86770874 0.62048936 0.5949761 0.73424906 0.59429085 0.79069227 0.69645333
0.7835387 0.58318496 0.62083787 0.6359323 0.28874668 0.6526752 1.0193461 0.52831537

feature_extractor.layers.3.layers.1.bias f4 [64]
00000000: 171a 133d 3873 67be aa22 5bbe cd0b eabd
00000010: 74d3 ec3d cda1 a0be bd5a babd 4e78 babd
00000020: bed2 b2be 03de b7be 4711 1dbf 163d 89be
00000030: 991c 77bd 6676 4cbe 9fd1 c5be 2818 29bf
00000040: 4b82 b5be 3607 55be 4f45 6b3e 53a4 33bb
00000050: a84b 85be 5578 6dbd ee6e 73be 0bd7 363e
00000060: f917 88be 8c4c b4be 49aa 66be 031f e0bd
00000070: 6c1e 01bf 8b99 113e 947a b1be 12c2 9abe
00000080: b7b8 88be 0429 5d3d 7157 3b3c bce8 9ebd
00000090: 50d1 e3bd 755b e9be 9cbd e4bd 844d bbbe
000000a0: 018b 34bd f8a9 76bf ff94 e2be 9631 7bbe
000000b0: c04d e9be 2b19 08be 10e1 a93e 8aa2 03be
000000c0: a4b2 2ebe db6d d5be dff1 90be b2fc b83d
000000d0: 464b b3be a99c cabe 7e6c 13be ae3d 503d
000000e0: b31d 1bbf a9fd 5dbf ed3b 26be d06a cdbe
000000f0: 14bf c3be ea1f 883e 0f48 77be b07f d93c
0.035913553 -0.22602546 -0.21399942 -0.11428032 0.11563769 -0.31373444 -0.09099338 -0.091049775
-0.3492641 -0.3591157 -0.6135449 -0.26804417 -0.060330007 -0.1996704 -0.3863649 -0.66052485
-0.35450968 -0.20803532 0.22975658 -0.0027411177 -0.26034284 -0.057976086 -0.23772785 0.1785547
-0.2658079 -0.3521465 -0.22525896 -0.10943415 -0.50437045 0.14218728 -0.34663832 -0.3022619
-0.26703426 0.053994194 0.011434422 -0.07759234 -0.111239076 -0.4557759 -0.111689776 -0.36582577
-0.044077877 -0.963531 -0.442543 -0.24530634 -0.4556713 -0.13290851 0.33179522 -0.12854972
-0.17060333 -0.41685376 -0.28309533 0.09032573 -0.35018367 -0.39572647 -0.14396855 0.050840072
-0.6059219 -0.8671518 -0.16233797 -0.40120554 -0.3823172 0.26586848 -0.24148582 0.026550144

feature_extractor.layers.3.layers.1.running_mean f4 [64]
00000000: bf6b 5fc0 1ac6 75c0 e11a 25c0 9e0f 13c0
00000010: 2b61 bbbf 7ad0 23c0 07a8 d3bf 7d94 66c0
00000020: 8625 bdbf 3a0b 11c0 123a 8bc0 306b 2ec0
00000030: 4e32 02c0 f84c 243e 3cbf 67c0 0717 083e
00000040: e16a 85c0 ba92 64bf fa93 dcbf 9191 2bc0
00000050: ff27 07c0 31d6 19c0 5070 eebf 7669 1cc0
00000060: 6c7b e1bf da37 59c0 23d0 1bbf 57ad ccbf
00000070: 59ac 09c0 8315 1ec0 e384 7fc0 fb5e 8dc0
00000080: b69f cdbf 2e30 c5bf 882e 59c0 d105 1ec0
00000090: 207a d5bf b4ca d9c0 9dc9 2dc0 4a2d 81bf
000000a0: 5d16 19c0 6092 143f 4b9b cebe c24c 41c0
000000b0: d30a 823f 21b5 4dc0 b6b4 10bf f745 dcbf
000000c0: c4ca c9c0 70ed 5fc0 6e0b c0bf cd9f 30c0
000000d0: 2e95 8f3f 6f55 1ac0 b96b 4bc0 c193 36c0
000000e0: 6632 66c0 0e30 f43f b34a 30be ca51 c8bf
000000f0: 414d 96bf 2cfa 55c0 0664 e6c0 7a2b 02c0
-3.4909513 -3.8402162 -2.5797656 -2.2978282 -1.4639028 -2.5595994 -1.6535653 -3.602813
-1.4777076 -2.2663102 -4.3508387 -2.7252922 -2.0343204 0.16044986 -3.621047 0.13290034
-4.1692967 -0.89286387 -1.7232659 -2.6807597 -2.1118162 -2.4036982 -1.8628025 -2.4439368
-1.761579 -3.394034 -0.60864466 -1.5990399 -2.1511443 -2.470063 -3.9924858 -4.4178443
-1.6064365 -1.5405328 -3.393465 -2.469105 -1.6677895 -6.805994 -2.7154305 -1.0091946
-2.39199 0.5803585 -0.40352854 -3.02031 1.0159553 -3.2141802 -0.56525743 -1.7208852
-6.3060017 -3.498867 -1.5003488 -2.7597535 1.1217401 -2.4114645 -3.1784499 -2.8527682
-3.596826 1.9077165 -0.17215995 -1.564996 -1.1742326 -3.3433943 -7.19971 -2.0339036

feature_extractor.layers.3.layers.1.running_var f4 [64]
00000000: 3bdd 1041 bcf9 0141 b02c ab40 0e8e a040
00000010: c96f 7640 e5a9 7c40 0e7e 9240 f8d8 e140
00000020: 677c 9740 87f5 a340 3edc e340 76a6 a440
00000030: 865b ec40 2513 7740 1652 2841 40b4 3140
00000040: 8969 e540 5133 6a40 96ee 6c40 1205 c340
00000050: eb5b c140 1b64 0e41 7966 ae40 be0d d640
00000060: 06cc 9940 f3ce f440 67de 8c40 97ce 9d40
00000070: caa4 4040 f190 e540 a59e c840 929e dd40
00000080: 5036 a340 f96a 5d40 80d9 a540 0b4e 0b41
00000090: d0fe 8d40 da12 1141 97cd d240 10ec 5440
000000a0: 144e 9a40 8998 9a40 6f0d 3e40 5e0a 9240
000000b0: bb24 2b40 e5d5 ba40 687d ca40 06e8 6540
000000c0: 41ce 1041 dfe4 0941 b1ac f440 c1cb b440
000000d0: c424 b040 5f7b 9c40 ac91 ba40 95af e340
000000e0: 0491 bd40 583e 8640 e7f8 8740 be2d 7540
000000f0: 99b8 1d40 fefe fa40 2cc3 3841 80b9 9d40
9.054011 8.12347 5.349205 5.0173407 3.8505728 3.9478695 4.5778875 7.0577354
4.733936 5.1237216 7.120635 5.14532 7.3861723 3.8605435 10.5200405 2.7766266
7.1691327 3.659382 3.7020621 6.094369 6.0424705 8.89944 5.450009 6.6891775
4.806155 7.6502624 4.4021487 4.9314685 3.010058 7.173943 6.269366 6.9256067
5.10038 3.459654 5.1828003 8.706553 4.437355 9.067102 6.5875964 3.326908
4.822031 4.83112 2.96957 4.5637655 2.6741168 5.83861 6.3278084 3.5922866
9.050355 8.618377 7.6460805 5.6498723 5.504488 4.89006 5.830282 7.1151834
5.923952 4.1951103 4.2491336 3.830917 2.464392 7.843627 11.547649 4.928894

feature_extractor.layers.6.layers.0.weight f4 [64, 64, 3, 3]
00000000: a302 7d3c 8d90 1a3e c3f8 ccbd 58d3 583d
00000010: f33c d03c 3ce9 e7bc d39b 23be 9bea 28be
00000020: 0c3d 4dbe 444c c6bb 77f6 9f3b fb65 9b3c
00000030: fdfe 92bd 2bbc 82bd 9f9f 25bd 46a7 a83d
00000040: ffb7 c53d 28f6 b53d 1d8d 90bc 9140 f63c
00000050: 1809 cb3d e614 cebc 5d34 34bd 3922 abbd
00000060: 93ad b4bd e4b8 18bd 9aa2 97bd 2c7a b83c
00000070: c054 97bc 0e9b 203d 3eb9 a9bd a254 ccbd
00000080: 155f d1bd 8fa4 d03d cf54 073e f93e 093e
00000090: c8aa e2bd 6e35 75bd b8b5 92bd 2695 edbc
000000a0: 4b4a ffbc e016 333c ff76 5ebd 2f81 25bd
000000b0: 8fda bcbd 40b6 633c 1f33 cc3c 8d30 0d3d
000000c0: 7ee0 823d d1a4 6e3d 22b7 863d e5a1 da3b
000000d0: 1c82 513b e06b b53c 175c 10bd 8dc6 debc
000000e0: ceeb 35bd 65cc b3ba 0bdc 463d d434 9cbc
000000f0: ab60 8ebd 310d 1ebd d11d 65bd 442c 943d
00000100: c491 de3a 4348 263e 0b18 903d ee3b 6e3d
00000110: 7631 673e 47b7 adbd c7c0 a4bd c521 61bd
00000120: 97e4 10bd 644d 6ebc 45ee 803d 8f6e 89bd
00000130: b689 bebd 1731 fc3c 6c45 0cbc f5ef 1ebc
00000140: 283e de3c 0b08 be3c 7d17 e8bc 1b9c 05bc
00000150: 6de2 563d b408 a53c 90aa 2d3d c3e1 5ebd
00000160: f714 d3bd 143d dbbc 1bc6 47bd 1a71 d03c
00000170: 3360 ecbc f858 8139 e7d2 333c fb4d 24bc
00000180: 7fdc e9bd 98e7 0abe 1e6a d8bd 8c4d 66bd
00000190: 2d67 56bd d759 4f3c bca4 04bc 2289 27bb
000001a0: 1122 0f3c 0c1a 0b3e 6fc1 423e e0bc 4c3e
000001b0: 48c9 76bb ba8f 063d a958 0ebc 8ae3 913d
000001c0: 19d8 9a3d afa7 0c3d 2b80 7cbd 7d35 60bd
000001d0: e259 8dbc 6d5f 81bc 8d39 12bd ca44 a6bd
000001e0: 384e c3bd 43ac a2bd f88a babd c1d2 c83d
000001f0: 54b9 f73d 1fb8 573d a3bc b3bd ee95 e4bc
00000200: e277 eebd 66d6 8ebd 702a 89bd a7f6 c6bd
00000210: e148 96bc 6e3b 00bd 9743 5fbd 78b2 43bd
00000220: aaae 56bd b257 bcbd 612c fcbd c2f9 ecbc
00000230: 6fdc c9bd 6c77 32bd 02de 19bc da29 da3c
00000240: 314d e73c 5a49 7f3d e05d c3bc 2da0 823d
00000250: b700 1d3d eb7f 773d abd7 55bd a73d dcbd
00000260: 949a 65bd 2fb6 97bd 093b 033e 72d9 31bd
00000270: 7be3 0abd 9cff 333d 5164 9c3c 563d 99bd
00000280: e3df 17bd 6d13 12bd 51e3 92bc 7cf5 f33c
00000290: 69d7 f23c 2ca0 323d 1413 9e3d 29c7 dc3d
000002a0: d9cd 01ba b32d 25bd eab1 913c 33a8 1c3d
000002b0: ffe6 e5bc 9b31 b3bd d609 b73d f533 053d
000002c0: eb6f 34bd 83ba e23d 0a4e 84bc 28dd 39ba
000002d0: b1f7 c5bd ab5c abbd 511e e0bd 3eb3 80bd
000002e0: e43a 90bd 6c3d a4bd 02ee f43d 2d5b 293e
000002f0: 0ea0 fd3d 0636 8b3d f7a4 30bc c9d6 463d
00000300: d5f0 cfbc 6baa 36bc 90fa d4bc 0edf 96bd
00000310: 1a44 44bd 0ff2 49bd 802e 5dbd a752 89bd
00000320: eaa6 a2bc 93bb e8bc e476 a3bd 4473 01be
00000330: 5223 f3bd d4a4 3dbd 280f bcbd 672b 153c
00000340: b743 b0ba 344c 86bd de9e db3d 0022 5c3d
00000350: d127 d93c 4449 0fbe ef13 e9bd f8dd dcbd
00000360: 3c03 523c 67ec d43c 0731 b93c 499d cb3c
00000370: 41fa c63d 7111 ef3c 1e75 ed3d 326e 853d
00000380: de96 063b 78ac 83bd 17e6 aebd 9508 93bd
00000390: 40c3 d93a 3add 87bb ce06 fd3c dbd4 f1bd
000003a0: 4db6 eebd 72b4 febd 234e f7bd ffcb 9abd
000003b0: 8cb6 1ebe fd99 97bd 355c d6bd 1b46 71bc
000003c0: ac7c 45be 1e22 3ebe d2a7 3bbe ec25 00be
000003d0: 60cc 2fbe afc5 f6bd b299 aebd 6357 babd
000003e0: 6df5 7abd b461 7ebd 1a57 1cbd 9d47 a6bc
000003f0: 50a4 513d 4193 0f3c e329 4dbd b99e 7abd
0.015442523 0.15094204 -0.10008385 0.052935928 0.025419688 -0.028309457 -0.15977411 -0.16495745
-0.20042819 -0.006051572 0.004881676 0.018969527 -0.071775414 -0.063835464 -0.04043543 0.0823503
0.09654235 0.08884841 -0.017645413 0.030060085 0.09913844 -0.02515645 -0.04399525 -0.08356137
-0.08822169 -0.0372857 -0.07404061 0.022519194 -0.01847303 0.03921037 -0.08287285 -0.0997708
-0.102232136 0.10187637 0.13215946 0.13402928 -0.1106773 -0.059865408 -0.07163566 -0.029001784
-0.031163355 0.010930747 -0.054312702 -0.040406402 -0.09221374 0.013898432 0.02492672 0.03447013
0.06390475 0.05826265 0.065778986 0.0066721314 0.003196842 0.022146165 -0.035244074 -0.027194286
-0.044414334 -0.001371753 0.048549693 -0.01906816 -0.06952032 -0.0385868 -0.05593664 0.072350055
0.0016980697 0.16238503 0.07035836 0.058162622 0.22577462 -0.08482223 -0.08044582 -0.054963846
-0.03537425 -0.014544819 0.06295446 -0.067105405 -0.0930361 0.030785127 -0.008561473 -0.009700765
0.027129248 0.023197195 -0.028331513 -0.008154894 0.05246203 0.020145752 0.04239899 -0.054414522
-0.10306733 -0.026762523 -0.048772912 0.025444556 -0.028854465 0.00024671084 0.010975576 -0.010028358
-0.114190094 -0.13564909 -0.10567115 -0.0562263 -0.05234449 0.012655697 -0.008095916 -0.0025563915
0.008736149 0.13584155 0.19019102 0.19993925 -0.0037656594 0.032851912 -0.00868813 0.07123478
0.075607486 0.034339603 -0.061645668 -0.05473851 -0.017254774 -0.015792573 -0.035699416 -0.08118589
-0.095364034 -0.079430126 -0.091085374 0.09805823 0.120958954 0.052665826 -0.08776214 -0.027903523
-0.116439596 -0.06974487 -0.066975474 -0.09715014 -0.018345298 -0.031306677 -0.054507818 -0.047777623
-0.052412666 -0.09196414 -0.12313152 -0.028927688 -0.098564975 -0.04357092 -0.00939131 0.026631285
0.02823505 0.062325813 -0.023848474 0.06378207 0.03833076 0.060424726 -0.05220763 -0.10753947
-0.05605562 -0.07407796 0.12815489 -0.043420263 -0.03390835 0.04394494 0.019090803 -0.07482402
-0.03707875 -0.035663057 -0.017930659 0.029780142 0.029643731 0.043609783 0.077184826 0.10780174
-0.0004951633 -0.040326785 0.017785031 0.038246345 -0.02806425 -0.08749696 0.08937423 0.032520253
-0.044052046 0.110707305 -0.016150493 -0.0007090145 -0.09666384 -0.083672844 -0.109432824 -0.06284188
-0.070424825 -0.08019528 0.11959459 0.16538687 0.12384044 0.067974135 -0.010781518 0.04854468
-0.025383392 -0.011149029 -0.025998384 -0.07366763 -0.04791651 -0.04930311 -0.053999424 -0.06705218
-0.019854981 -0.028409755 -0.07981661 -0.12641627 -0.11871971 -0.04629977 -0.09182578 0.009104586
-0.0013447915 -0.06557503 0.10723661 0.053743362 0.026508244 -0.13992792 -0.11380755 -0.10784525
0.012818154 0.025991632 0.022606386 0.024855273 0.09715701 0.029183121 0.11594604 0.06515159
0.0020536701 -0.0642938 -0.0853998 -0.07179371 0.0016613975 -0.0041462453 0.030887034 -0.11808177
-0.11655865 -0.12436761 -0.1207545 -0.075584404 -0.15499324 -0.07402418 -0.10466806 -0.014726187
-0.1928584 -0.18567702 -0.18325737 -0.12514466 -0.17167807 -0.12049424 -0.08525409 -0.09098699
-0.061269213 -0.062104896 -0.038169004 -0.02029782 0.05118209 0.008763135 -0.050088774 -0.061186526

feature_extractor.layers.6.layers.0.bias f4 [64]
00000000: 7e3a fe36 1034 30b6 1188 9e36 25bd 4a36
00000010: 324c 1837 915c 9837 1226 edb6 a811 9837
00000020: d1df 5eb7 2006 bb37 cd92 2bb7 6919 3536
00000030: 27e5 9236 e3d9 a737 653d 8137 add2 2037
00000040: 87be 1e37 5538 26b7 8900 ff36 eac5 b7b6
00000050: 46b6 1f37 8e47 11b6 86c0 6f37 454f 2937
00000060: 86e6 45b7 143f 07b7 daed d336 7798 65b7
00000070: 759e 7cb7 6208 d436 fd08 8d37 d47f 5db7
00000080: 2f1e 95b6 fe0f ffb6 99ba ac37 61b1 2237
00000090: 949e b7b7 af7d b9b7 bf1b 9737 82f9 6a37
000000a0: 3315 5bb7 cacd 97b7 14d1 0db7 3942 76b7
000000b0: 3467 aa37 7da7 a0b7 8ff5 5e37 bcc8 7136
000000c0: e8b9 d7b5 824c 87b6 7031 a136 78dc b5b7
000000d0: 8a79 ffb6 745e 87b6 450d 8c37 b14b 8737
000000e0: 8dfa 9ab7 c81c 1837 ec9b 36b7 97aa 52b7
000000f0: 40a7 8037 a518 7837 7c65 8db7 4e3f 9f37
7.5765993e-06 -2.6256348e-06 4.724607e-06 3.0210442e-06 9.077647e-06 1.8162917e-05 -7.0675824e-06 1.8128034e-05
-1.32843425e-05 2.229499e-05 -1.0226574e-05 2.6985892e-06 4.377816e-06 2.0009413e-05 1.5406587e-05 9.585795e-06
9.4618945e-06 -9.907487e-06 7.5996545e-06 -5.476865e-06 9.519577e-06 -2.1648334e-06 1.42903355e-05 1.0091641e-05
-1.1795788e-05 -8.061314e-06 6.3159796e-06 -1.3684962e-05 -1.5057264e-05 6.3190682e-06 1.6812695e-05 -1.3202389e-05
-4.44406e-06 -7.601454e-06 2.059089e-05 9.697252e-06 -2.1889144e-05 -2.2112245e-05 1.8013523e-05 1.400558e-05
-1.3058353e-05 -1.809643e-05 -8.452935e-06 -1.4678161e-05 2.0313637e-05 -1.915148e-05 1.3289405e-05 3.6028641e-06
-1.6072854e-06 -4.03222e-06 4.803929e-06 -2.1679545e-05 -7.613741e-06 -4.0343093e-06 1.669548e-05 1.61285e-05
-1.8474902e-05 9.066607e-06 -1.0884349e-05 -1.2556694e-05 1.5336671e-05 1.478769e-05 -1.6855767e-05 1.8983756e-05

feature_extractor.layers.6.layers.1.weight f4 [64]
00000000: a996 373f b260 553f b048 183f 19de e43e
00000010: 776f 103f 9b8e 443f c0e4 683f 576e 1c3f
00000020: abe2 513f 4969 4c3f 4a35 443f 5064 603f
00000030: 304e 203f 2ae8 093f fe1a 493f b5c2 123f
00000040: 2137 4b3f 099c 3c3f 7a48 693f c051 4b3f
00000050: 2c01 0a3f e6c6 7f3f 6107 2a3f 0099 593f
00000060: 5be5 103f be8b bab8 a786 173f 9a28 4b3f
00000070: 1b1c 433f 9243 0b3f da54 5b3f 72cf 773f
00000080: 943b f53e 4f53 2b3f 2389 4e3f a4a3 253f
00000090: d43a 743f f523 1f3f e880 c23e 432b 233f
000000a0: 83a8 2b3f c148 273f 6a3d 213f 5855 1c3f
000000b0: 4684 c83d fddc 283f c8b6 0b3f 42ca 6e3f
000000c0: f67c 163f 2bd2 8739 cde9 363f f588 4e3f
000000d0: d442 1c3f 75e8 683f 8013 b73e 7762 173f
000000e0: 0cfa 033f bef8 3a3f da18 8d3f f796 373f
000000f0: 7ce1 583f 3e48 203f 4add 073f c3f0 063f
0.71714264 0.8335067 0.5948591 0.44700697 0.5642008 0.767801 0.90974045 0.61105865
0.8198649 0.7984815 0.7664381 0.87653065 0.62619305 0.5386988 0.7855681 0.5732835
0.79380995 0.7367559 0.91126215 0.79421616 0.5390804 0.9991287 0.6641751 0.84999084
0.5659997 -8.8952e-05 0.5918984 0.7935883 0.7621476 0.5439998 0.8567635 0.9680091
0.47897017 0.66923994 0.80678004 0.6470282 0.95402265 0.6216424 0.37988973 0.6373789
0.67054003 0.6534539 0.62984335 0.61067724 0.09790854 0.659622 0.5457578 0.9327737
0.58784425 0.00025905794 0.714505 0.8067773 0.6103947 0.909797 0.35757065 0.5913462
0.51553416 0.730358 1.1023209 0.7171473 0.8471906 0.6261023 0.53072035 0.52711123

feature_extractor.layers.6.layers.1.bias f4 [64]
00000000: aa60 6e3d a5ed fcbe 3fc2 053b 544a 48be
00000010: fe7a 79be 1460 0cbf 58bd 3abf f947 2cbf
00000020: 6dfb d0be db22 debb e797 93be 25a1 b7be
00000030: be44 ddbe d80e a5be d48c 01bf 349a 72be
00000040: 7a16 0abf 01ea afbe 50dc 1bbf 29a4 eebe
00000050: 6289 88be 1dd7 38bf 92bd c4be 7265 cabe
00000060: 807c 8dbe 3ece f3ba 0a3d fe3b abb6 cfbe
00000070: d73a 06bf df15 47be 46cc 3fbe 83cd f6be
00000080: a644 cabe 3e93 783c 81a5 efbe 9a1f 25bf
00000090: 5f3d fdbe 3af7 5ebe 7e4c f4be 1cdb c1be
000000a0: 3638 2dbf 2157 0abe 7857 98bd c35c 68bd
000000b0: a2e2 ca3f 3f27 b1be d836 0c3c 232f fabe
000000c0: e224 01be b253 8dbc 7632 7bbe 7bb3 253d
000000d0: 4dc7 07bf 646d a3be b32a 19bf f556 84be
000000e0: ab21 e0be 5400 c73d 735a 5ebf 994b 61bf
000000f0: 6194 12bf 163d b7be ab99 bc3d 5a22 5fbe
0.058197655 -0.49400058 0.002040997 -0.19559604 -0.24363324 -0.54834104 -0.72945166 -0.6729732
-0.40816823 -0.0067790574 -0.2882683 -0.3586513 -0.4321651 -0.32237887 -0.5060551 -0.23691636
-0.53940547 -0.34358218 -0.60883045 -0.4660962 -0.26667315 -0.72203237 -0.3842588 -0.39530522
-0.27634048 -0.0018600894 0.0077587413 -0.40569052 -0.5243353 -0.19441937 -0.18730268 -0.48203668
-0.395055 0.015171824 -0.46805957 -0.64501345 -0.49460885 -0.21773997 -0.4771461 -0.3786248
-0.67663896 -0.135098 -0.07438558 -0.05672909 1.5850413 -0.34600255 0.008557998 -0.48864087
-0.12611726 -0.017251823 -0.24530968 0.04045437 -0.53038484 -0.31919396 -0.5983078 -0.25847593
-0.43775687 0.097168595 -0.86856765 -0.8800598 -0.5725766 -0.35788792 0.09208997 -0.21790448

feature_extractor.layers.6.layers.1.running_mean f4 [64]
00000000: 6b56 46bf 6c91 1fc0 2027 8dbf 46b7 2bbf
00000010: 28d9 f2bf 4cc2 b8be c99a 7abf ae06 2abc
00000020: f7ae 6dbf e0fc 7bc0 ba33 19c0 3ecd 19c0
00000030: 2af3 c3bf 452e 14c0 bc4a eabf b437 99bf
00000040: cc1a f9bf 0c26 ed3e d3a8 febf 491d e7bf
00000050: 1251 4dbf 5301 f3bf 56fd abbf 86ee c6bd
00000060: c7ff 56bf 2ab1 89bc 3c48 cabd a339 963d
00000070: 1efc 65bf e3fe 68be 2714 aabe 7308 1cbf
00000080: b9ea d7be 8874 1bbf b65f 43c0 66fb 103e
00000090: dc0a 00be 4ae4 8fbf eeaa d13f a1e6 dbbf
000000a0: ee2f 92bf a7d2 d7bf 1a44 f9bf a4ad cabf
000000b0: af1d f1bf 3f22 7bc0 1a01 c2bf 732b e5bf
000000c0: 380f 14c0 0b79 65bd aa41 cbbf a3c3 b7bf
000000d0: b3f9 1cc0 2f9d 0bc0 096a 9ebf 1deb 1cc0
000000e0: f46b 01c0 ffe1 bfbf f5cb 20be fdc0 dfbd
000000f0: 6c85 c33f 445d adbf e376 13c0 6d0b 863f
-0.77475613 -2.4932508 -1.1027565 -0.6707653 -1.8972521 -0.36085737 -0.97892433 -0.010377569
-0.928451 -3.9373093 -2.3937821 -2.403152 -1.5308583 -2.315324 -1.8304057 -1.1970124
-1.9461303 0.4631809 -1.9895271 -1.8055812 -0.8020183 -1.8984779 -1.3436687 -0.097134635
-0.83984035 -0.016808111 -0.09877059 0.07335212 -0.89837825 -0.22753482 -0.332185 -0.6095039
-0.42171267 -0.6072469 -3.0527167 0.14158401 -0.12504143 -1.1241543 1.6380289 -1.7179757
-1.1420877 -1.6861161 -1.9473908 -1.5834241 -1.8837184 -3.9239652 -1.5156586 -1.7903885
-2.3134289 -0.05602364 -1.5879414 -1.4356579 -2.4527404 -2.1814687 -1.2376109 -2.4518502
-2.022214 -1.4990844 -0.15702803 -0.109254815 1.5275092 -1.3544087 -2.3041313 1.0472237

feature_extractor.layers.6.layers.1.running_var f4 [64]
00000000: e276 1140 7135 2b40 6d1a f53f 0fa4 d03f
00000010: bf22 1540 1d2e 6c40 e3b2 5e40 b0e2 5140
00000020: e8ec 3b40 020a bb40 465b 3040 6dc7 5040
00000030: ec76 2140 3776 0b40 e352 fa3f 408d 3540
00000040: 2244 6340 6aa3 0f40 3150 4340 ccf2 6f40
00000050: 8548 e33f e4c8 5340 435a 0c40 2d16 3840
00000060: 8857 f83f 9f3a b638 9aac d53f 6fb2 2440
00000070: 39fb 4140 016e ef3f df52 6940 ca10 5340
00000080: 1642 b63f 9c73 1040 7387 4b40 ac1c 2440
00000090: 1477 8040 2273 0c40 b7e5 863f b690 ce3f
000000a0: 1dfd 0b40 c4fa 2b40 cc41 0040 01ce d73f
000000b0: 163a ae3f 845b 2c40 64b4 4840 c91c 6440
000000c0: d16c 2040 c441 2b3b 2385 ee3f 6844 5a40
000000d0: 5be1 0d40 3e52 4240 c1ea 3440 2217 4f40
000000e0: 9087 f13f 3629 5440 a591 4640 3072 3840
000000f0: e939 0640 9e58 1340 5f3e ef3f da76 0640
2.272881 2.6751368 1.914869 1.6300067 2.3302457 3.6903145 3.4796684 3.279461
2.9363346 5.8449717 2.755571 3.262172 2.5228834 2.1790903 1.9556545 2.8367462
3.5510335 2.244349 3.0517695 3.7491941 1.7756506 3.3091364 2.1930091 2.8763535
1.9401712 8.689355e-05 1.6693299 2.5733907 3.0309584 1.8705446 3.645683 3.2978997
1.4238918 2.2570562 3.1801422 2.56425 4.014536 2.1945271 1.0538853 1.6137912
2.1873238 2.6871805 2.004016 1.6859742 1.3611476 2.6930857 3.1360102 3.564257
2.5066416 0.0026131729 1.863438 3.4104252 2.2168796 3.0362697 2.8268282 3.235787
1.8869495 3.3150153 3.1026394 2.8819695 2.0972846 2.3022838 1.8690909 2.1010041

feature_extractor.layers.9.layers.0.weight f4 [64, 64, 3, 3]
00000000: 3044 f1bc 99f9 71bd 5d90 39bd a305 d9bc
00000010: fd3b b9bc b7d5 053d b8af 513e f5bf 973d
00000020: f062 c33d 22ba 52bd 5cc3 39bd 4d21 1cbc
00000030: 91b7 393d 4059 673d b463 593d 8864 393e
00000040: c5b6 2c3e 954f 453e 8c12 b03a 03f2 04bc
00000050: 88d5 883c 80f8 c4bc 8bd4 51bd 3d12 1dbd
00000060: cf62 b5bc bfe1 16bd 4594 0fbd 61df 65bd
00000070: 90f3 96bd f662 5bbd e215 ebbc 8382 81bd
00000080: acde 5abd 07df e4bd 2e12 d9bd 31c4 b8bd
00000090: bc7a 41bd c1de 59bd ce86 3b3d 90b0 61bc
000000a0: 5101 4e3c 2d8e 833d 7886 b63d 2ebf 733d
000000b0: fe16 093e 1803 b5bc 0bfb 3bbd 5266 8cbc
000000c0: 8e9b c33d 5012 b33d c097 163e e2f4 a33d
000000d0: c5f5 153d a7a0 133d afd1 6bbd 2c04 29bd
000000e0: 3675 0ebd baf6 18bc c214 17bb 534a 553b
000000f0: bddf 92bd b6b8 d1bd f14c a1bd 2a92 bc3c
00000100: 05f8 653d c28a 6f3c 71cb 77bd dcc4 40bc
00000110: 8d3e 80bc 5376 3e3d fffd d23c 6a2f c73c
00000120: f21d 92bd 9012 e1bd ce78 c2bd 2fe9 233d
00000130: 760e b93d 779b d63d 7e1f 3c3d 747a bf3c
00000140: 4052 493d 3111 533d eecc 873d 6421 453d
00000150: 7956 b53c 3f8e 7a3d 15cd a53d a105 1d3e
00000160: 21c3 313d 8669 b43d 3cc1 9d3d cacf da3d
00000170: e260 d63d b8c0 963d b86c 6a3d afbd 733c
00000180: 7725 dd3d 5202 9d3d af96 a43d 3606 a33c
00000190: c9c0 14bd f15b 163d c0c2 1f3d ece2 bc3c
000001a0: b5a2 a83d 799d d4bc be70 8dbd 85bd 69bd
000001b0: 2f3b d2bc 7467 3cbd f158 a0bc 5762 9bbd
000001c0: baf1 b9bd 94c9 81bd 89a3 e13c 28ad 5ebd
000001d0: 958f 1d3b 3704 edbc dcc5 08bd d48a 9539
000001e0: dd42 8dbd 9c90 bcbd edab 39bd 2886 d8bd
000001f0: af7a c4bd 5760 e4bd 1793 913c 1b5f 0d3d
00000200: 5af5 a0bb 0175 1bbc 880b 3cba 831e a6bd
00000210: 9e4a 88bd 5467 69bd 17b0 46bd ce5e d93d
00000220: dca9 f73d 65d8 6f3d d36c a9ba 443b b4bc
00000230: b574 5cbc f70f 5cbc 8a0c ec3b 56e0 2039
00000240: 2a5b b23b d04b 2fbd 44bf 8fbd d983 07bd
00000250: c5a1 eabc f8d8 d4bd 780e 003d 00f2 843d
00000260: 3129 32bd 9edd 56bd 59ca 15bd 7196 8ebd
00000270: 3844 b0bd 68bc b8bd 67c7 c9bd b0c4 dabc
00000280: 6cce 06bd 1b35 3ebd 054a aa3c c52a ec3b
00000290: a002 c7bd d3da 28bc 0563 d4bc 4384 2dbd
000002a0: 89a9 a53a dae2 76bd 4656 17bc e72a acbd
000002b0: bb7c 69bd 2c79 b9bc 112a 8d3d 654e ae3c
000002c0: 4072 b13c b0af 53bd 3d27 5c3b ce8f cdbc
000002d0: 86a4 d5bc 0cec adbb 4efd 3cbd 9677 92bd
000002e0: 3e47 0bbd 7031 2abc 7ab0 143e e160 b43d
000002f0: 6933 3e3e fd33 8abd 43c9 9dbd e268 a9bd
00000300: 78ec a3bd 4024 ccbd ab79 bbbd 9c5c 10be
00000310: 2343 91bd 2c9b 98bd 6030 b73d 7cfe 873d
00000320: 62cf 7d3d 53dd 2f3a 2bf9 fdbb 2bc5 81bc
00000330: 71f3 4ebd e238 11bd 17b4 0cbc 873e 9dbd
00000340: 42ad 80bd 84ab 15bd f3c8 12bd 6c57 11ba
00000350: 98b9 4b3d eff0 703d 8c94 993b 0cdf 153b
00000360: c8f9 2cbc 0daa 7abc 1d26 a63a d209 6f3b
00000370: da1c fc3c 717f 82bb c937 ac3d d136 123e
00000380: 94e5 9e3d 5022 0d3a 69e9 6238 8803 dc39
00000390: 3102 afb9 d88f 24b9 7b8d 5b39 938d 2f3a
000003a0: bc3b a23a f35e 15ba b075 ccbb 8d70 12bd
000003b0: 9522 f8bc 9353 6a3c cd6b e83c 65a1 293c
000003c0: e338 8fbd 49c4 2dbd 2b4b 8abc c0ff 343c
000003d0: 8968 8fbc ebfa c93c 13df 653d 25e0 7bba
000003e0: 2b7e 9d3c 2d9b bbbc 8caa 2abd 1252 afbd
000003f0: a99f 223c 39aa efbc f897 853c b753 c43c
-0.02945146 -0.059075925 -0.04530369 -0.026491946 -0.022611612 0.032674517 0.20477188 0.0740966
0.09540355 -0.05144704 -0.045352325 -0.009529424 0.04534108 0.0564816 0.0530736 0.18104756
0.16866596 0.1926864 0.0013433262 -0.008114341 0.016703382 -0.024044275 -0.051228087 -0.03834747
-0.022141842 -0.036836382 -0.03505351 -0.056121234 -0.073706746 -0.053561173 -0.028696958 -0.06323721
-0.053435013 -0.111753516 -0.105991706 -0.090217955 -0.04723619 -0.05319095 0.045782857 -0.013775006
0.012573556 0.06423602 0.08912367 0.059508495 0.13387677 -0.022096202 -0.04589371 -0.017138634
0.09551154 0.08743727 0.14706326 0.08005692 0.036611337 0.036041882 -0.057573017 -0.041263744
-0.03477975 -0.009336168 -0.0023053144 0.0032545521 -0.07171581 -0.10240309 -0.078760035 0.023018915
0.056144733 0.014620485 -0.06049675 -0.011765685 -0.015654827 0.04649956 0.02575588 0.024314601
-0.07134618 -0.10989869 -0.09495698 0.040017303 0.09035961 0.10478871 0.04592847 0.02337382
0.049150705 0.051530067 0.06630884 0.048127547 0.02213596 0.061170813 0.08095757 0.15334179
0.04339898 0.088091895 0.07702872 0.10684164 0.10467698 0.07360977 0.05723259 0.014876767
0.107981615 0.07666458 0.08036553 0.019900423 -0.036316667 0.036708776 0.039004087 0.023057424
0.08234159 -0.025953995 -0.069062695 -0.057065506 -0.025662987 -0.045997098 -0.01957366 -0.07587116
-0.09079309 -0.06337276 0.0275438 -0.054364353 0.002404188 -0.028932674 -0.03339182 0.0002852293
-0.06897519 -0.092072695 -0.045329977 -0.10572463 -0.095937125 -0.11151188 0.017770333 0.034514528
-0.0049120607 -0.009488345 -0.0007173349 -0.081112884 -0.06654857 -0.056983307 -0.048507776 0.10613786
0.12092945 0.05855598 -0.0012926109 -0.022000916 -0.0134555595 -0.013431541 0.007203643 0.0001534236
0.0054429965 -0.04279691 -0.07018903 -0.033084724 -0.02864159 -0.10392946 0.0312638 0.0649147
-0.043496314 -0.052457444 -0.036569927 -0.06962288 -0.08606762 -0.09020311 -0.09852486 -0.026705116
-0.032911703 -0.046437364 0.020787248 0.007207247 -0.097172976 -0.010306078 -0.025926122 -0.042362463
0.0012639026 -0.060274936 -0.009236878 -0.084066205 -0.057003718 -0.022640787 0.06892789 0.021277616
0.021660924 -0.05168122 0.0033592724 -0.025092985 -0.026079427 -0.00530768 -0.046140008 -0.071517155
-0.03400349 -0.010387763 0.14520445 0.08807541 0.18574299 -0.06748197 -0.07704403 -0.08271958
-0.08004087 -0.09967852 -0.09154066 -0.14097828 -0.070928834 -0.07451472 0.08944774 0.06640336
0.061965354 0.00067087 -0.0077506504 -0.015841087 -0.050525133 -0.03545464 -0.008587859 -0.07677942
-0.06283046 -0.036540523 -0.03583617 -0.0005544338 0.049737543 0.058823522 0.0046868976 0.0022868542
-0.010557599 -0.015299332 0.0012676154 0.003647436 0.030775476 -0.0039824774 0.08409078 0.14278723
0.07758632 0.0005383836 5.409998e-05 0.000419643 -0.00033380234 -0.00015693845 0.00020938173 0.00066968164
0.0012377421 -0.00056980475 -0.0062396154 -0.035751868 -0.030289927 0.014302152 0.028371716 0.010353421
-0.06993272 -0.04242352 -0.016881546 0.011047304 -0.017505901 0.02465578 0.056120943 -0.000960829
0.0192252 -0.022901142 -0.041666552 -0.085605755 0.009925761 -0.029255973 0.016307816 0.0239657
